…
Clases 2.0: 8 cantidad, 12.70%
Clases 3.0: 36 cantidad, 57.14%

Frame features in validation set: (33, 1024)
Frame masks in validation set: (33,)
Frame labels in validation set: (33, 1)
Clases 0.0: 6 cantidad, 18.18%
Clases 1.0: 5 cantidad, 15.15%
Clases 2.0: 4 cantidad, 12.12%
Clases 3.0: 18 cantidad, 54.55%
_____________________________________
Model: "sequential_146"
_________________________________________________________________
 Layer (type)                Output Shape              Param #   
=================================================================
 dense_0 (Dense)             (None, 64)                65600     
                                                                 
 dropout_94 (Dropout)        (None, 64)                0         
                                                                 
 dense_1 (Dense)             (None, 64)                4160      
                                                                 
 dense_2 (Dense)             (None, 32)                2080      
                                                                 
 dense_3 (Dense)             (None, 32)                1056      
                                                                 
 dense_4 (Dense)             (None, 16)                528       
                                                                 
 dense_5 (Dense)             (None, 4)                 68        
                                                                 
=================================================================
Total params: 73,492
Trainable params: 73,492
Non-trainable params: 0
_________________________________________________________________
