…
Clases 2.0: 12 cantidad, 12.63%
Clases 3.0: 54 cantidad, 56.84%

Frame features in validation set: (65, 1280)
Frame masks in validation set: (65,)
Frame labels in validation set: (65, 1)
Clases 0.0: 11 cantidad, 16.92%
Clases 1.0: 10 cantidad, 15.38%
Clases 2.0: 8 cantidad, 12.31%
Clases 3.0: 36 cantidad, 55.38%
_____________________________________
Model: "sequential_511"
_________________________________________________________________
 Layer (type)                Output Shape              Param #   
=================================================================
 dense_0 (Dense)             (None, 128)               163968    
                                                                 
 dropout_631 (Dropout)       (None, 128)               0         
                                                                 
 dense_1 (Dense)             (None, 128)               16512     
                                                                 
 dropout_632 (Dropout)       (None, 128)               0         
                                                                 
 dense_2 (Dense)             (None, 128)               16512     
                                                                 
 dropout_633 (Dropout)       (None, 128)               0         
                                                                 
 dense_3 (Dense)             (None, 128)               16512     
                                                                 
 dense_4 (Dense)             (None, 4)                 516       
                                                                 
=================================================================
Total params: 214,020
Trainable params: 214,020
Non-trainable params: 0
_________________________________________________________________
